# YOLOv5 ðŸš€ by Ultralytics, GPL-3.0 license

# Parameters
nc: 1  # number of classes æ•°æ®é›†ä¸­çš„ç±»åˆ«æ•°
#depth_multipleå’Œwidth_multipleä¸¤ä¸ªå‚æ•°æ˜¯æŽ§åˆ¶æ¨¡åž‹å¤§å°çš„
depth_multiple: 0.33  # model depth multiple æ¨¡åž‹å±‚æ•°å› å­(ç”¨æ¥è°ƒæ•´ç½‘ç»œçš„æ·±åº¦)
width_multiple: 0.50  # layer channel multiple æ¨¡åž‹é€šé“æ•°å› å­(ç”¨æ¥è°ƒæ•´ç½‘ç»œçš„å®½åº¦)
anchors:
  - [10,13, 16,30, 33,23]  # P3/8
  - [30,61, 62,45, 59,119]  # P4/16
  - [116,90, 156,198, 373,326]  # P5/32

# YOLOv5 v6.0 backbone
backbone:
  # [from, number, module, args]
  [
   [ -1, 1, Iden, [ 3 ] ],  # 0-P1/2  #
   [ -1, 1, GML, [ 1, 2, 2, 4 ] ],  # 1-P1/2  # 5 -> 128
   [-2, 1, Conv, [64, 6, 2, 2]],  # 2-P1/2
   [-1, 1, Conv, [128, 3, 2]],  # 3-P2/4
   [-1, 3, C3, [128]],          # 4
   [-1, 1, Conv, [256, 3, 2]],  # 5-P3/8
   [-1, 6, C3, [256]],          # 6
   [-1, 1, Conv, [512, 3, 2]],  # 7-P4/16
   [-1, 9, C3, [512]],          # 8
   [-1, 1, Conv, [1024, 3, 2]], # 9-P5/32
   [-1, 3, C3, [1024]],         # 10
   [-1, 1, SPPF, [1024, 5]],    # 11
  ]

# YOLOv5 v6.0 head
head:
  [[-1, 1, Conv, [512, 1, 1]],  # 12
   [-1, 1, nn.Upsample, [None, 2, 'nearest']], # 13
   [[-1, 8], 1, Concat, [1]],  # 14 cat backbone P4
   [-1, 3, C3, [512, False]],  # 15

   [-1, 1, Conv, [256, 1, 1]],  # 16
   [-1, 1, nn.Upsample, [None, 2, 'nearest']], # 17
   [[-1, 6], 1, Concat, [1]],  # 18 cat backbone P3
   [-1, 3, C3, [256, False]],  # 19 (P3/8-small)

   [-1, 1, Conv, [256, 3, 2]],  #20
   [[-1, 16, 1], 1, Concat, [1]],  # 21 cat head P4
   [-1, 3, C3, [512, False]],  # 22 (P4/16-medium)

   [-1, 1, Conv, [512, 3, 2]], # 23
   [[-1, 12], 1, Concat, [1]],  # 24 cat head P5
   [-1, 3, C3, [1024, False]],  # 25 (P5/32-large)

   [[19 ,22 ,25], 1, Detect, [nc, anchors]],  # Detect(P3, P4, P5)
  ]
